models/high_frequency/model_policy_reinforce_larger_lr_less_std_updated.pkl (torch, 5880 bytes, 6 tensors)

action_bounds f4 [1, 2]
00000000: 0000 20c2 0000 2042
-40.0 40.0

weight f4 [2, 2]
00000000: eb6c a1c0 a74a c240 a64d f8bf 5ebb 1241
-5.0445457 6.071613 -1.9398696 9.170744

bias f4 [2]
00000000: 1f53 d53e 6070 fb3f
0.4166498 1.9643669

weight f4 [2, 2]
00000000: c011 a7bf 04b7 bdbf 3da7 d53f 59c5 3740
-1.3052292 -1.4821477 1.6691662 2.8714201

bias f4 [2]
00000000: 6043 223f 6705 a23f
0.63384056 1.2657899

weight f4 [1, 2]
00000000: 3d62 acbf 5320 1a40
-1.346748 2.408223
