models/high_frequency/model_policy_reinforce_submit_1.pkl (torch, 5055 bytes, 6 tensors)

action_bounds f4 [1, 2]
-40.0 40.0
00000000: 0000 20c2 0000 2042

weight f4 [2, 2]
-4.764713 7.571975 -1.7868413 11.488404
00000000: 8778 98c0 9f4d f240 37b7 e4bf 81d0 3741

bias f4 [2]
0.27625299 1.8176466
00000000: 0871 8d3e a5a8 e83f

weight f4 [2, 2]
-1.2489587 -1.4042741 1.6156195 2.5997462
00000000: e1dd 9fbf 41bf b3bf 9fcc ce3f 3e62 2640

bias f4 [2]
0.29719132 1.0769929
00000000: 7629 983e e7da 893f

weight f4 [1, 2]
-1.0319451 2.009911
00000000: c716 84bf 62a2 0040
