models/model_policy_reinforce_noise_opt.pkl (torch, 5676 bytes, 6 tensors)

action_bounds f4 [1, 2]
0	0xc2200000	-40.0
1	0x42200000	40.0

weight f4 [2, 2]
0	0xc05f0e62	-3.4852529
1	0x3f25b79a	0.6473328
2	0xbfd2b0f6	-1.6460254
3	0x3fb98721	1.4494363

bias f4 [2]
0	0xbe470e28	-0.19438994
1	0x3fa36ca0	1.2767525

weight f4 [2, 2]
0	0xbf3acf31	-0.729724
1	0xbf8cbb2e	-1.0994623
2	0x3feb28b4	1.8371797
3	0x3fcd71ea	1.6050389

bias f4 [2]
0	0x3e923a56	0.28560132
1	0x3f42f8b0	0.76160717

weight f4 [1, 2]
0	0xbf04ee27	-0.5192589
1	0x3fa55215	1.2915674
