models/model_policy_reinforce.pkl (torch, 5492 bytes, 6 tensors)

action_bounds f4 [1, 2]
-40.0 40.0
00000000: 0000 20c2 0000 2042

weight f4 [2, 2]
-2.0946808 4.6098933 -1.8084567 3.5500376
00000000: 400f 06c0 3f84 9340 827b e7bf d133 6340

bias f4 [2]
1.9224294 1.7387223
00000000: 2b12 f63f 748e de3f

weight f4 [2, 2]
-3.1341057 -1.931032 1.5264165 1.2157512
00000000: 3095 48c0 0e2c f7bf 9e61 c33f bc9d 9b3f

bias f4 [2]
0.06884034 0.47144055
00000000: 2afc 8c3d a860 f13e

weight f4 [1, 2]
-1.1772294 1.373211
00000000: 74af 96bf 61c5 af3f
