models/model_policy_reinforce_updated.pkl (torch, 5588 bytes, 6 tensors)

action_bounds f4 [1, 2]
0	0xc2200000	-40.0
1	0x42200000	40.0

weight f4 [2, 2]
0	0xc0063f56	-2.0976157
1	0x40a14c2a	5.0405474
2	0xbff06dc5	-1.8783499
3	0x407cb225	3.948373

bias f4 [2]
0	0x4007ae22	2.1200032
1	0x3ff4a162	1.911175

weight f4 [2, 2]
0	0xc055db5c	-3.3415136
1	0xc007e8f9	-2.1235945
2	0x3fdafcc1	1.7108384
3	0x3fb34510	1.4005451

bias f4 [2]
0	0x3f1ba3a1	0.6079655
1	0x3ed6abb6	0.4192788

weight f4 [1, 2]
0	0xbfb6ecf0	-1.4291058
1	0x3fc5d5d2	1.5455878
