models/model_policy_reinforce_less_frequency.pkl (torch, 5736 bytes, 6 tensors)

action_bounds f4 [1, 2]
00000000: 0000 20c2 0000 2042
-40.0 40.0

weight f4 [2, 2]
00000000: f8f6 a5c0 06db e13e 0dca 60c0 bc70 1240
-5.1863976 0.44112414 -3.5123322 2.2881308

bias f4 [2]
00000000: 2250 95bc 75b1 9f3f
-0.018226687 1.247603

weight f4 [2, 2]
00000000: 341e e1bd 2c43 8cbf 0ef1 b83f b4ae e63f
-0.10992089 -1.0957999 1.4448564 1.8022065

bias f4 [2]
00000000: 262f 5f3e de83 583f
0.2179533 0.84576213

weight f4 [1, 2]
00000000: acac bbbe 17b0 b13f
-0.36655176 1.3881863
